project_cartpole/project_cartpole/results/policy_net_98.pth (torch, 800588 bytes, 10 tensors)

layer1.weight f4 [256, 4]
-0.1708558 -0.42160672 0.02671463 0.103697516 0.04488973 -0.20232989 -0.12648639 0.026042044
0.44671944 0.38424844 0.6134975 0.2731103 -1.139495 -0.018435454 0.02404805 0.0058795745
0.33061963 0.06920364 0.02411001 -0.15925264 -0.6011709 0.08716567 0.56000507 -0.014051719
0.59225583 0.16437727 0.2532089 0.10702743 -0.38203 -0.16797432 -0.013374902 0.006652575
0.14873697 -0.11005688 0.07271909 -0.07437617 -0.17586121 -0.12028872 -0.19375832 0.1255057
-0.07219917 0.07943402 0.5468229 0.057716835 0.13589391 0.27772322 0.5141911 0.17671095
0.7080891 0.23330905 0.7104587 0.14978158 -0.3040609 0.31502783 0.46248466 0.15984209
0.34143645 -0.051542707 0.0060979207 0.02911219 -0.013472675 -0.05631358 -0.5353463 -0.13287766
-0.10375256 -0.049403336 -0.3503703 -0.14639589 -0.006622062 -0.12521903 -0.33862767 -0.07765157
-0.1053986 -0.097271204 -0.5260999 -0.12206404 -0.3850269 -0.18188365 0.04735865 0.13418837
0.49991062 0.2739072 -0.24770929 -0.09869385 0.62599075 0.24300353 0.7545858 0.1720588
0.22639225 0.100806236 0.25641432 0.22727086 -0.38609692 -0.27430168 -0.45076767 -0.031794604
-0.47357365 0.0007187809 -0.23778267 -0.056295738 1.1413428 0.12749398 0.2605827 0.06357632
-0.1884403 -0.18194018 -0.83915883 -0.19824435 0.21744978 0.25525624 -0.031313892 -0.053759374
-0.10962976 -0.05352388 -0.18406987 0.08884332 0.4258547 -0.082625054 -0.12350734 -0.021045985
0.27429762 0.38779843 0.030003618 -0.19937308 -0.24475786 -0.19126587 -0.80468214 -0.19982144
-0.010205113 0.041800108 0.15282929 -0.12293433 -0.54841894 -0.044650886 -0.18442166 0.06499218
0.06050224 -0.007397568 -0.23636259 0.09140584 0.016126582 0.19977011 0.14060515 0.113509506
0.9094731 0.13781129 0.026760478 0.05783504 0.30820778 0.12035401 0.55183715 0.08667421
-0.7132562 0.09038121 0.2057872 0.21866362 0.22149552 0.027100462 0.305948 0.16603218
-0.2062252 -0.16706659 -0.74489725 -0.17449233 0.1954342 0.32192993 -0.01132119 -0.048485193
0.45738226 0.013279886 -0.07702884 -0.06273454 -0.27767286 -0.07947122 -0.24057822 -0.10664397
-0.089363776 -0.045346033 0.48116162 0.08211881 0.32139045 -0.10034695 -0.105657384 -0.083543085
-0.2558347 0.28465408 0.14617531 -0.02298023 0.06831694 0.21151558 0.36326984 0.12842716
0.28602168 0.30080393 -0.18315294 -0.12381739 -0.16443746 -0.044940658 -0.39270723 -0.11129512
-0.31235677 -0.053043798 0.12287541 0.036188945 -0.023960032 0.06415045 0.2686797 0.07011528
0.15893291 -0.18983778 -0.450359 -0.17710266 -0.19123384 0.011325815 -0.22386909 -0.11513018
-0.16600688 0.16583753 0.044422798 0.09455317 0.18575948 0.038420126 -0.010989376 -0.15197809
0.21658699 0.28866315 -0.15309742 -0.2348914 0.32795918 -0.098434195 -0.32606226 -0.0515641
0.5988719 0.017110819 0.00036185174 0.075198404 -0.019927008 -0.100249566 0.23429833 0.27740803
-0.13759744 -0.14721747 -0.35056293 -0.021346454 -0.10190115 -0.1292064 0.6182596 -0.022155987
0.12518048 0.04683812 -0.011663454 -0.14818615 -0.1344764 -0.07850251 0.012912206 0.21372503
00000000: d3f4 2ebe d6dc d7be a4d8 da3c 5d5f d43d
00000010: 4bde 373d 912f 4fbe a685 01be 2056 d53c
00000020: 69b8 e43e 36bc c43e 2c0e 1d3f 1dd5 8b3e
00000030: f9da 91bf f305 97bc 6b00 c53c 72a9 c03b
00000040: fa46 a93e a3ba 8d3d 5b82 c53c 2013 23be
00000050: 56e6 19bf ea83 b23d 7e5c 0f3f 2e39 66bc
00000060: 149e 173f 8452 283e 99a4 813e 3231 db3d
00000070: 7099 c3be 7601 2cbe 6822 5bbc d8fd d93b
00000080: 814e 183e 8065 e1bd bfed 943d 8952 98bd
00000090: f614 34be ef59 f6bd 9568 46be 9184 003e
000000a0: 29dd 93bd 4eae a23d 96fc 0b3f 7d68 6c3d
000000b0: c627 0b3e bd31 8e3e 07a2 033f b7f3 343e
000000c0: 5445 353f 91e8 6e3e 9fe0 353f 5860 193e
000000d0: dfad 9bbe 544b a13e caca ec3e a5ad 233e
000000e0: c2d0 ae3e 721e 53bd 11d1 c73b b07c ee3c
000000f0: 7fbc 5cbc 12a9 66bd 750c 09bf 1511 08be
00000100: 397c d4bd 275b 4abd bc63 b3be cee8 15be
00000110: e2fd d8bb 6b39 00be 9b60 adbe c907 9fbd
00000120: 39db d7bd 2036 c7bd 7cae 06bf b6fc f9bd
00000130: 3f22 c5be b53f 3abe 25fb 413d ad68 093e
00000140: 49f4 ff3e 913d 8c3e 81a7 7dbe 0020 cabd
00000150: ee40 203f ebd5 783e 892c 413f 2f30 303e
00000160: 5fd3 673e 8073 ce3d bd48 833e b1b9 683e
00000170: 7fae c5be 4571 8cbe 05cb e6be 0f3b 02bd
00000180: 3f78 f2be 926c 3c3a 4d7d 73be 5c96 66bd
00000190: 8517 923f c88d 023e 186b 853e 4d34 823d
000001a0: 7ef6 40be 874e 3abe 1dd3 56bf 9100 4bbe
000001b0: 28ab 5e3e f2b0 823e ff42 00bd ca32 5cbd
000001c0: 9185 e0bd db3b 5bbd d07c 3cbe 7df3 b53d
000001d0: a109 da3e 5337 a9bd 6bf1 fcbd a168 acbc
000001e0: bd70 8c3e 848d c63e 26ca f53c 7528 4cbe
000001f0: cea1 7abe 33db 43be a6ff 4dbf fe9d 4cbe
00000200: 5933 27bc 9736 2b3d 487f 1c3e fec4 fbbd
00000210: 2f65 0cbf d9e3 36bd 08d9 3cbe 9f1a 853d
00000220: 32d1 773d 4c67 f2bb 0909 72be fc32 bb3d
00000230: e51b 843c 8990 4c3e ccfa 0f3e ac77 e83d
00000240: 3bd3 683f 671e 0d3e ca38 db3c 6fe4 6c3d
00000250: 69cd 9d3e 2a7c f63d 3345 0d3f 4082 b13d
00000260: f597 36bf c919 b93d e1b9 523e 5be9 5f3e
00000270: b9cf 623e ca01 de3c 37a5 9c3e 5704 2a3e
00000280: b32c 53be 8113 2bbe 96b1 3ebf 1eae 32be
00000290: e71f 483e 00d4 a43e 837c 39bc 6998 46bd
000002a0: 022e ea3e e193 593c 4cc1 9dbd f77a 80bd
000002b0: 232b 8ebe cfc1 a2bd 235a 76be 2768 dabd
000002c0: 5b04 b7bd c3bc 39bd d15a f63e e82d a83d
000002d0: 4a8d a43e b482 cdbd e662 d8bd a318 abbd
000002e0: c4fc 82be 2ebe 913e fbae 153e 0941 bcbc
000002f0: c0e9 8b3d 8a97 583e 81fe b93e 6982 033e
00000300: 6f71 923e f902 9a3e 728c 3bbe f993 fdbd
00000310: 4b62 28be b213 38bd ec10 c9be b2ee e3bd
00000320: 3aed 9fbe 7444 59bd 1aa6 fb3d dc3a 143d
00000330: d447 c4bc 5061 833d 6390 893e 9a98 8f3d
00000340: 4fbf 223e d664 42be 7495 e6be 665a 35be
00000350: ced2 43be e98f 393c f03d 65be 5fc9 ebbd
00000360: b5fd 29be 50d1 293e aef4 353d 18a5 c13d
00000370: bc37 3e3e 6c5e 1d3d c90c 34bc 25a0 1bbe
00000380: fbc8 5d3e a8cb 933e 92c5 1cbe 5f87 70be
00000390: 44ea a73e de97 c9bd a2f1 a6be e134 53bd
000003a0: ab4f 193f fd2b 8c3c ebb6 bd39 9f01 9a3d
000003b0: f73d a3bc a54f cdbd e7eb 6f3e 6d08 8e3e
000003c0: 58e6 0cbe 2dc0 16be fc7c b3be c2de aebc
000003d0: 8db1 d0bd af4e 04be 4346 1e3f 7980 b5bc
000003e0: 502f 003e 54d9 3f3d 1218 3fbc 1cbe 17be
000003f0: 2eb4 09be edc5 a0bd b88d 533c bcda 5a3e

layer1.bias f4 [256]
-0.14521085 0.3310344 -0.025052588 -0.097830564 -0.6505905 -0.114006415 0.046066374 0.11010302
-0.47906265 -0.60082865 0.14865047 -0.33236215 0.08302082 -0.13141851 -0.39281225 0.18447791
-0.45706135 -0.3385289 0.21436936 -0.4544574 -0.3313334 -0.04567934 -0.36437154 -0.5137517
0.27839857 0.130834 0.17174253 -0.47452652 -0.6827095 0.057753578 -0.20696075 0.12632006
-0.71110916 -0.008270271 -0.5586872 0.39005262 0.11954716 0.054378275 -0.13291337 -0.19201553
0.16455896 -0.39921224 0.33946368 0.20433775 -0.19495597 0.3099871 -0.14596994 0.074931465
-0.6136443 -0.4626635 -0.3269787 -0.36671457 0.27584234 -0.41711378 -0.7558069 -0.56355053
-0.27428922 -0.5667569 0.11041076 -0.5270517 0.19617221 -0.0409317 -0.5027851 -0.6634845
-0.6320769 -0.0880734 -0.41989672 -0.0750831 0.180733 -0.46186954 -0.33633414 0.18357193
-0.48543927 0.2533932 0.26179498 -0.37452906 0.22119421 0.37242007 -0.76985234 0.084026046
-0.03361152 0.32593235 0.23858577 -0.08890041 -0.745679 -0.5181076 -0.1406883 -0.1863892
0.1208897 -0.27084967 -0.43216613 0.2657622 0.16971263 -0.22744158 0.10583037 -0.05277612
-0.49785143 0.096519195 0.22912458 -0.47526106 -0.36180457 -0.19846402 -0.052752685 -0.149091
-0.17766286 -0.31592786 0.3550588 0.23376806 -0.4172717 -0.38714796 -0.03889133 0.25716087
0.08869936 0.064858355 0.22741313 -0.2824724 -0.49628788 -0.23644795 -0.5029768 0.076998234
-0.38855812 0.26801914 -0.5194606 -0.0013104983 -0.47259632 0.10056081 0.20900533 -0.4970942
0.38669074 -0.55559045 0.06690341 -0.6130556 0.37543312 -0.03202213 0.3255403 -0.32261536
-0.7029161 0.401346 0.038778786 0.18290456 0.09063659 -0.54498357 -0.025564661 -0.17432226
-0.17929263 -0.5942391 -0.35797805 -0.52777696 0.3196178 0.08274424 -0.036345843 -0.47760406
-0.4691387 0.18547323 -0.1406085 -0.06532692 0.30513188 -0.10475278 0.050347712 -0.5645413
0.15722008 -0.070835076 0.44227532 -0.09089044 0.0313042 0.11843099 0.14600025 -0.046461403
-0.7287852 -0.3968936 0.07095335 -0.46693817 0.10022742 0.13107963 -0.3254715 0.24538693
0.525596 0.09967908 -0.47262847 -0.44110903 -0.52625155 -0.10554766 -0.4573831 0.12252653
0.32741275 -0.28030097 -0.27242088 0.08603083 -0.5128267 -0.1409678 0.057394028 0.12526272
-0.4293191 0.016701844 -0.51694965 -0.27850887 0.32625216 0.064281024 -0.41830677 -0.33334687
-0.7957479 0.108205654 -0.11076741 -0.012268663 -0.12824446 0.41176158 -0.25847045 0.045406852
0.05642546 -0.36527646 0.15588821 -0.74054044 -0.3116766 -0.07961344 -0.47000265 0.08808297
0.26768932 0.04481542 -0.5935875 0.109811425 -0.3534125 0.3091926 0.06266394 0.3213519
-0.6505848 0.22512841 0.058809523 0.43575537 0.059812337 0.31698382 0.27036312 0.10545058
0.25425017 0.49590343 -0.8243102 -0.19016175 -0.73863006 -0.32322654 0.01716417 -0.40106988
-0.16589402 0.083279096 0.083538555 -0.41586784 -0.3675916 0.0870522 -0.08355644 -0.14767842
-0.15046373 -0.42469528 -0.088409774 0.4402522 -0.6139878 -0.10271283 0.34332725 0.044098444
00000000: 27b2 14be 577d a93e 163b cdbc 645b c8bd
00000010: 198d 26bf 327c e9bd 18b0 3c3d b17d e13d
00000020: b347 f5be e8cf 19bf d437 183e 5f2b aabe
00000030: d206 aa3d 9392 06be b01e c9be c7e7 3c3e
00000040: f203 eabe a953 adbe a483 5b3e a4ae e8be
00000050: 88a4 a9be 421a 3bbd e88e babe 3b85 03bf
00000060: 428a 8e3e 59f9 053e 46dd 2f3e 24f5 f2be
00000070: 0dc6 2ebf 048f 6c3d 85ed 53be 0c5a 013e
00000080: 400b 36bf 0880 07bc 2006 0fbf fab4 c73e
00000090: 24d5 f43d c1bb 5e3d 711a 08be b89f 44be
000000a0: 2582 283e 8c65 ccbe 2fce ad3e ea3d 513e
000000b0: 8aa2 47be a1b6 9e3e 2579 15be ab75 993d
000000c0: cb17 1dbf 3be2 ecbe c169 a7be 03c2 bbbe
000000d0: 353b 8d3e f08f d5be 907c 41bf d944 10bf
000000e0: a36f 8cbe fb16 11bf 091f e23d dcec 06bf
000000f0: 5ee1 483e 00a8 27bd 86b6 00bf 1fda 29bf
00000100: cbcf 21bf d45f b4bd b4fc d6be 2bc5 99bd
00000110: 1212 393e 2a7a ecbe fd33 acbe 48fa 3b3e
00000120: 7f8b f8be c1bc 813e fe09 863e 46c2 bfbe
00000130: bc80 623e d8ad be3e 0b15 45bf d915 ac3d
00000140: 3cac 09bd 9be0 a63e d44f 743e 6b11 b6bd
00000150: d2e4 3ebf b3a2 04bf 9810 10be cfdc 3ebe
00000160: 0595 f73d cfac 8abe e144 ddbe fc11 883e
00000170: 26c9 2d3e 72e6 68be 98bd d83d c62b 58bd
00000180: 62e6 febe dbab c53d a29f 6a3e 6b55 f3be
00000190: 733e b9be 273a 4bbe 3313 58bd 50ab 18be
000001a0: 41ed 35be 4cc1 a1be 44ca b53e e560 6f3e
000001b0: a3a4 d5be 4238 c6be 844c 1fbd 97aa 833e
000001c0: 03a8 b53d 75d4 843d fdde 683e 39a0 90be
000001d0: 7219 febe 691f 72be 16c3 00bf 40b1 9d3d
000001e0: 17f1 c6be ce39 893e 5ffb 04bf 07c5 abba
000001f0: 25f8 f1be d3f2 cd3d 7e05 563e 2283 febe
00000200: 54fc c53e 2d3b 0ebf a804 893d 36f1 1cbf
00000210: c538 c03e a329 03bd 38ad a63e d72d a5be
00000220: 4ff2 33bf 397d cd3e 81d6 1e3d 554b 3b3e
00000230: ad9f b93d 0b84 0bbf fb6c d1bc 8981 32be
00000240: 7d98 37be 0e20 18bf e648 b7be 641c 07bf
00000250: f2a4 a33e d075 a93d 61df 14bd 8588 f4be
00000260: f332 f0be b2ec 3d3e adfb 0fbe 1fca 85bd
00000270: 3f3a 9c3e a088 d6bd 6739 4e3d c785 10bf
00000280: 4dfe 203e fb11 91bd e971 e23e c424 babd
00000290: d538 003d f28b f23d 1781 153e 504e 3ebd
000002a0: ab91 3abf a335 cbbe fd4f 913d 8512 efbe
000002b0: 0944 cd3d bd39 063e 33a4 a6be b646 7b3e
000002c0: 768d 063f 8c24 cc3d 5cfc f1be 0bd9 e1be
000002d0: 6cb8 06bf 5f29 d8bd 1e2e eabe 30ef fa3d
000002e0: a5a2 a73e 9c83 8fbe c07a 8bbe ef30 b03d
000002f0: 9c48 03bf dd59 10be 0016 6b3d df44 003e
00000300: b7cf dbbe 4ed2 883c d056 04bf b798 8ebe
00000310: 860a a73e c5a5 833d 4e2c d6be 71ac aabe
00000320: 22b6 4bbf ed9a dd3d 06da e2bd 8102 49bc
00000330: 8452 03be 6ad2 d23e 3d56 84be 89fc 393d
00000340: 621e 673d 8405 bbbe 29a1 1f3e 0f94 3dbf
00000350: 1394 9fbe 5f0c a3bd 30a4 f0be d864 b43d
00000360: 930e 893e 6090 373d 5af5 17bf d0e4 e03d
00000370: 7cf2 b4be 7e4e 9e3e f455 803d 3c88 a43e
00000380: ba8c 26bf 1088 663e 41e2 703d 541b df3e
00000390: c8fd 743d b44b a23e 096d 8a3e 79f6 d73d
000003a0: 142d 823e 0ee7 fd3e fe05 53bf c3b9 42be
000003b0: dc16 3dbf f37d a5be e09b 8c3c 0859 cdbe
000003c0: 1fe0 29be 3b8e aa3d 4316 ab3d a1ec d4be
000003d0: f734 bcbe 6d48 b23d a41f abbd 0339 17be
000003e0: 2a13 1abe a971 d9be 2f10 b5bd bd68 e13e
000003f0: 4e2e 1dbf 1b5b d2bd 97c8 af3e 92a0 343d

layer2.weight f4 [256, 256]
-0.07449077 -0.14893785 -0.04118014 0.04595051 0.020695679 -0.09326659 0.02603975 -0.14652547
0.021239324 -0.07523437 0.05822791 0.14034149 0.063851945 0.12290722 -0.054650847 0.06112144
0.039564084 0.08133951 -0.0013305065 -0.026202668 -0.048378028 0.0015623298 0.0667257 -0.07218834
-0.021090401 -0.07225647 0.00016816272 -0.0031426118 0.014370401 -0.12584348 0.006121659 0.017218594
0.012678524 -0.09756773 -0.031120352 -0.13858256 -0.082193114 -0.013437889 -0.03592898 0.13302995
0.06391933 -0.0895713 -0.04700147 -0.005688292 0.10011303 -0.15049487 -0.033481535 0.016448565
0.108740464 0.10415302 0.02062587 0.0972032 -0.016659955 -0.01869474 0.10666637 -0.024206642
-0.12355399 0.05072399 -0.21584746 -0.00921792 0.017680379 -0.018844299 -0.029478833 -0.040807195
0.06891407 -0.020596828 -0.050812952 -0.0012725451 -0.06885405 0.017984238 0.20157672 0.022231916
0.0024179867 -0.045117885 -0.14183502 -0.036912646 -0.026466692 -0.0030388148 0.002123139 0.015930617
0.028436605 -0.0895418 -0.00606619 -0.0058861515 0.06391577 0.06075592 -0.013279303 0.0041898265
-0.16428304 0.009866022 -0.0340181 0.025716474 -0.02239823 -0.046669394 -0.07682367 -0.009450778
0.29495072 0.030042129 -0.05892875 0.0051404038 0.13338314 0.046594843 0.02263433 0.036939994
-0.04105197 -0.016847562 -0.052337877 -0.043920327 -0.0229924 0.13505131 -0.031111328 -0.07255249
0.033821106 0.033241156 -0.091106914 -0.016402688 0.048889425 0.13102163 0.07538629 -0.062863864
0.00608465 -0.030780844 0.033094425 -0.007410298 0.05180866 -0.0053764354 -0.03728258 -0.0039373576
-0.0944811 -0.12189503 -0.03153776 0.016692268 -0.10776095 -0.016954025 -0.14195901 0.182302
0.076578975 -0.20410088 -0.04229306 -0.12119953 -0.17443739 -0.0074773263 -0.06608816 -0.02020786
0.056969266 -0.005481409 0.028044311 0.066610545 -0.15716769 0.023740256 -0.009311995 0.030018909
-0.066292726 -0.0013012467 -0.013721191 0.1656985 -0.24166241 -0.017737688 -0.0823586 0.1270926
0.0038473527 -0.0208427 -0.052327543 0.06460079 -0.04747167 -0.02747409 0.015049328 0.008345388
0.056975227 0.015620282 0.045167416 0.041459303 -0.08409694 -0.042414762 -0.017262736 -0.052176043
-0.1137039 0.016018938 0.038089924 -0.03387274 0.11340571 -0.07447087 0.094636254 -0.039589286
-0.1355232 -0.020585744 -0.18093976 0.034442104 0.05105343 0.13029043 -0.12879786 -0.21459928
-0.015907364 -0.13127612 0.006890893 0.12084356 -0.13103688 -0.00895978 0.16658874 -0.03665705
-0.017482325 0.032617323 0.06320668 -0.16315843 0.08255296 -0.06341493 -0.0072948025 -0.017714487
0.021071173 0.017677784 -0.17700925 -0.030110704 0.06955281 -0.11559077 -0.0029898386 -0.032062728
-0.15453276 -0.005076088 0.053284485 0.008455798 -0.11173748 -0.09991564 -0.058116775 -0.10148358
0.10396449 -0.13467807 -0.02632764 -0.038624313 0.02364238 -0.16353682 -0.072392374 -0.0299614
-0.01037436 -0.24856979 -0.0030191527 -0.010336554 0.026445387 -0.02436099 -0.06335594 0.09941952
-0.09051914 -0.0028639652 0.00444381 -0.017789548 -0.04645095 0.028579375 0.19771014 -0.034440827
-0.025890874 0.054233197 0.055889998 -0.07567097 -0.09687527 0.0054824594 -0.2368235 -0.03339473
00000000: 9e8e 98bd 2a83 18be 82ac 28bd 9a36 3c3d
00000010: fc89 a93c 8e02 bfbd 5051 d53c c60a 16be
00000020: 17fe ad3c 7a14 9abd 6480 6e3d aeb5 0f3e
00000030: cfc4 823d c8b6 fb3d 91d9 5fbd 7a5a 7a3d
00000040: f30d 223d 5495 a63d 6464 aeba faa6 d6bc
00000050: 0a28 46bd 17c7 cc3a 7ca7 883d 7bd7 93bd
00000060: c7c5 acbc 33fb 93bd d654 3039 47f4 4dbb
00000070: d571 6b3c 1ddd 00be 3398 c83b 020e 8d3c
00000080: 95b9 4f3c 97d1 c7bd 1cf0 febc 96e8 0dbe
00000090: dd54 a8bd 972a 5cbc 442a 13bd 0139 083e
000000a0: 23e8 823d 2871 b7bd 9d84 40bd da64 babb
000000b0: 0f08 cd3d 541b 1abe ef23 09bd 24bf 863c
000000c0: 52b3 de3d 2e4e d53d 96f7 a83c 7912 c73d
000000d0: 757a 88bc b625 99bc e673 da3d 024d c6bc
000000e0: e009 fdbd f5c3 4f3d 1e07 5dbe c206 17bc
000000f0: 71d6 903c 5c5f 9abc 987d f1bc 7225 27bd
00000100: d222 8d3d aeba a8bc 3e21 50bd 87cb a6ba
00000110: 5a03 8dbd ae53 933c 216a 4e3e b51f b63c
00000120: 1677 1e3b 88cd 38bd 333d 11be b731 17bd
00000130: add0 d8bc da26 47bb 5d24 0b3b ed80 823c
00000140: e2f3 e83c b161 b7bd e4c6 c6bb 9ee0 c0bb
00000150: 45e6 823d 33db 783d 6f91 59bc d04a 893b
00000160: d039 28be 18a5 213c 9056 0bbd 5bab d23c
00000170: 7e7c b7bc 6828 3fbd ba55 9dbd 70d7 1abc
00000180: c803 973e e91a f63c 465f 71bd d570 a83b
00000190: 9795 083e 3cda 3e3d a16b b93c 644e 173d
000001a0: 1c26 28bd e603 8abc 3e60 56bd cde5 33bd
000001b0: 8f5a bcbc e44a 0a3e 2fdd febc 6696 94bd
000001c0: 0088 0a3d e127 083d 4396 babd ee5e 86bc
000001d0: 4740 483d 892a 063e 2164 9a3d c5be 80bd
000001e0: be61 c73b 1c28 fcbc 058e 073d 16d2 f2bb
000001f0: 5135 543d cf2c b0bb 9eb5 18bd f304 81bb
00000200: 4f7f c1bd 1aa4 f9bd bd2d 01bd 39be 883c
00000210: c6b1 dcbd 2be3 8abc b45d 11be 60ad 3a3e
00000220: 70d5 9c3d d2ff 50be 7d3b 2dbd 7637 f8bd
00000230: b79f 32be 5c04 f5bb 3b59 87bd f48a a5bc
00000240: 9b58 693d 649d b3bb 2fbd e53c 1c6b 883d
00000250: 91f0 20be ed7a c23c 5691 18bc 37ea f53c
00000260: 7bc4 87bd 988e aaba d9ce 60bc deac 293e
00000270: 5a76 77be a14e 91bc a0ab a8bd 9024 023e
00000280: de23 7c3b 4fbe aabc 6855 56bd 6b4d 843d
00000290: a771 42bd 5811 e1bc 7591 763c 18bb 083c
000002a0: db5e 693d 36ec 7f3c 7801 393d 3bd1 293d
000002b0: 043b acbd 1abb 2dbd 956a 8dbc 8cb6 55bd
000002c0: 97dd e8bd 263a 833c 2e04 1c3d 24be 0abd
000002d0: 4141 e83d 2f84 98bd a7d0 c13d 6028 22bd
000002e0: 98c6 0abe 6fa3 a8bc 4648 39be 2a13 0d3d
000002f0: 671d 513d db6a 053e 96e3 03be eabf 5bbe
00000300: 2950 82bc 3f6d 06be 00cd e13b d47c f73d
00000310: 882e 06be 0bcc 12bc 3d96 2a3e b425 16bd
00000320: 1837 8fbc be99 053d 8172 813d 0113 27be
00000330: 8711 a93d b0df 81bd 3d09 efbb f91d 91bc
00000340: 749d ac3c 00d1 903c ea41 35be b9aa f6bc
00000350: b471 8e3d dbba ecbd 2bf1 43bb 3554 03bd
00000360: d63d 1ebe 5055 a6bb d540 5a3d 308a 0a3c
00000370: 9fd6 e4bd 92a0 ccbd db0b 6ebd a0d6 cfbd
00000380: 56eb d43d 0ce9 09be 10ad d7bc 8734 1ebd
00000390: aaad c13c 3276 27be 7442 94bd 9c71 f5bc
000003a0: 38f9 29bc 1489 7ebe fadc 45bb a65a 29bc
000003b0: ffa3 d83c b390 c7bc c2c0 81bd 769c cb3d
000003c0: 1962 b9bd 5db1 3bbb 619d 913b 63bb 91bc
000003d0: 5a43 3ebd 4b1f ea3c 8774 4a3e d311 0dbd
000003e0: 1919 d4bc a123 5e3d e9ec 643d 62f9 9abd
000003f0: 8b66 c6bd 34a6 b33b dc81 72be eac8 08bd

layer2.bias f4 [256]
-0.19102132 -0.09580356 -0.11507134 -0.37354118 0.020711802 0.01847767 -0.080328576 0.0057802536
-0.107965715 -0.016553385 0.08843369 -0.038742267 -0.035318557 0.19930236 0.0048905974 -0.078542404
-0.02334319 -0.012809498 -0.03767813 0.034310754 -0.023456234 0.005894411 -0.42349362 0.015650256
-0.042288568 -0.005555915 0.18969907 -0.12688442 -0.0004311407 0.0034017293 -0.16758874 0.0047347085
-0.0025236814 -0.30928478 -0.026369529 0.00090169563 -0.022802353 0.0022550859 0.012936469 -0.061571285
0.023403471 -0.026125599 -0.34384787 -0.10843125 -0.004274047 0.37886718 0.0052579334 0.023464331
-0.028103504 -0.02993134 -0.0592713 -0.05428708 -0.06821596 -0.15081911 0.05744286 -0.26535892
-0.0039298143 0.021912131 -0.23236518 -0.026642734 -0.033374522 -0.33477393 -0.08006059 -0.24809955
-0.20204516 0.0149379475 0.08788722 -0.46612638 -0.11113799 -0.2533764 -0.005719838 0.013209632
0.306774 0.12118767 0.0049697105 -0.087865725 0.026437445 -0.023053752 -0.071742706 -0.06228458
0.12347511 -0.21516953 0.009097563 -0.4010405 -0.010754307 -0.07514274 -0.43546772 0.063972525
0.012267763 0.13825633 -0.32650334 0.18886624 -0.02043783 -0.44481146 -0.22447601 -0.042066146
0.033884555 -0.012998486 -0.025313107 -0.042732958 -0.007519958 0.029173477 -0.03401817 -0.09284111
-0.07484925 0.10968993 0.019894218 0.1846899 0.12723789 0.02692648 -0.053047996 -0.07334091
-0.0076979925 0.15080957 -0.2356483 0.0276332 -0.116765775 -0.18478817 -0.025522914 0.0026659423
-0.020311058 0.0067251683 0.059203953 -0.044430986 0.033516414 -0.18655433 -0.07355227 -0.022715658
-0.050164375 0.1283783 -0.02400128 -0.022492973 -0.019539814 -0.03466437 -0.16108084 -0.035120606
0.06398316 -0.106104575 -0.030278577 0.013711421 0.0212634 -0.0065634456 0.004203252 0.2719207
-0.35707074 0.14142747 -0.0280413 -0.09965635 -0.11461222 0.37567037 0.013346771 0.0026924992
0.17204462 0.0028049774 -0.09733497 0.01339816 0.08093604 0.030293182 -0.05079914 0.0067871795
0.023966914 0.012962475 -0.029840933 0.017776608 0.027698174 0.0010415975 -0.041965526 -0.29916647
0.045367938 0.30015466 -0.046467237 0.22321504 -0.08939864 0.2666121 -0.020864239 -0.29090184
-0.030239929 -0.06357178 0.06706641 -0.08110245 -0.073504545 0.028490309 0.014527071 -0.057736985
-0.024574682 0.030811716 -0.001841602 -0.024992818 -0.024202826 0.017051322 0.0028542967 -0.0017773159
0.20999955 -0.022579547 -0.020903999 -0.0034494929 0.0168501 -0.09952327 -0.05664121 -0.051460378
-0.35143852 -0.01740988 -0.22171992 -0.031513415 3.8904112e-05 0.092697725 -0.04259342 -0.2432748
0.011448841 -0.001797145 -0.012054975 -0.0067434427 -0.012228815 0.28673092 -0.00732812 0.20523033
-0.013780713 -0.012150639 -0.22724189 0.12851414 -0.053466458 -0.043507434 0.109025985 -0.02658328
-0.08123275 0.03405376 -0.027649857 -0.06692186 -0.013565125 0.049973965 -0.013512211 -0.014531891
0.092457384 0.2672975 -0.32802212 -0.15346362 0.08107767 0.062632 0.13485731 -0.19650042
0.23146674 0.20068537 0.026456194 0.30697238 -0.022396324 0.016213322 0.022327093 -0.20618267
-0.046764936 -0.1032812 0.009100547 -0.012162128 -0.00203846 -0.027892623 -0.09025052 -0.018653724
00000000: 189b 43be a834 c4bd 86aa ebbd ca40 bfbe
00000010: ccab a93c 7c5e 973c 4f83 a4bd 4868 bd3b
00000020: 211d ddbd f79a 87bc b91c b53d 36b0 1ebd
00000030: 31aa 10bd eb15 4c3e 4e41 a03b d7da a0bd
00000040: 383a bfbc eede 51bc 6254 1abd 6f89 0c3d
00000050: 4a27 c0bc e725 c13b 28d4 d8be f734 803c
00000060: c736 2dbd 650e b6bb 7940 423e fded 01be
00000070: ba0a e2b9 8cef 5e3b 629c 2bbe 9d25 9b3b
00000080: 5964 25bb 935a 9ebe e904 d8bc c55f 6c3a
00000090: 00cc babc 10ca 133b 7cf3 533c 2c32 7cbd
000000a0: a3b8 bf3c 5a05 d6bc d40c b0be 3411 debd
000000b0: 4e0d 8cbb e1fa c13e be4a ac3b 4538 c03c
000000c0: 5239 e6bc 9232 f5bc 76c6 72bd 215c 5ebd
000000d0: cfb4 8bbd 5370 1abe 3449 6b3d 20dd 87be
000000e0: acc5 80bb 1281 b33c 23f1 6dbe dd41 dabc
000000f0: b9b3 08bd 7d67 abbe cef6 a3bd cf0d 7ebe
00000100: ede4 4ebe 4bbe 743c 37fe b33d 1ea8 eebe
00000110: 519c e3bd 8dba 81be 7b6d bbbb 366d 583c
00000120: 7b11 9d3e 3e31 f83d f4d8 a23b f2f2 b3bd
00000130: 5793 d83c 39db bcbc d7ed 92bd 1e1e 7fbd
00000140: 85e0 fc3d 6755 5cbe f20d 153c 2e55 cdbe
00000150: d532 30bc 70e4 99bd a0f5 debe 0704 833d
00000160: bafe 483c 1193 0d3e 722b a7be 2766 413e
00000170: 3c6d a7bc 54be e3be 0add 65be 8d4d 2cbd
00000180: 88ca 0a3d 9af7 54bc 6f5d cfbc c108 2fbd
00000190: fb69 f6bb 37fd ee3c a356 0bbd 7b23 bebd
000001a0: 904a 99bd 1da5 e03d 33f9 a23c 591f 3d3e
000001b0: a64a 023e ec94 dc3c db48 59bd c233 96bd
000001c0: 713f fcbb d36d 1a3e ca4d 71be 055f e23c
000001d0: e522 efbd 1c39 3dbe 6e15 d1bc 17b7 2e3b
000001e0: 6063 a6bc cd5e dc3b d87f 723d 44fd 35bd
000001f0: 8248 093d 1908 3fbe 93a2 96bd 3016 babc
00000200: 2979 4dbd 9a75 033e 559e c4bc 2f43 b8bc
00000210: f611 a0bc 3afc 0dbd 60f2 24be a0da 0fbd
00000220: 9a09 833d 5b4d d9bd c70a f8bc dea5 603c
00000230: 9530 ae3c 2c12 d7bb 6fbb 893b 3139 8b3e
00000240: fad1 b6be 5dd2 103e deb6 e5bc a118 ccbd
00000250: d0b9 eabd de57 c03e 6aac 5a3c a474 303b
00000260: 772c 303e b6d3 373b 8f57 c7bd f583 5b3c
00000270: cbc1 a53d 6829 f83c c212 50bd fd66 de3b
00000280: 4356 c43c 9060 543c f974 f4bc 40a0 913c
00000290: 48e7 e23c 3686 883a 0be4 2bbd 592c 99be
000002a0: bbd3 393d dfad 993e 6e54 3ebd 7c92 643e
000002b0: a216 b7bd 6281 883e 7beb aabc 16f1 94be
000002c0: bab9 f7bc ec31 82bd 1d5a 893d 0b19 a6bd
000002d0: 8d89 96bd 8264 e93c f402 6e3c 9e7d 6cbd
000002e0: d850 c9bc da68 fc3c e961 f1ba bdbd ccbc
000002f0: 0145 c6bc 37af 8b3c 270f 3b3b d3f4 e8ba
00000300: 1f0a 573e bef8 b8bc dd3e abbc e310 62bb
00000310: 3909 8a3c dbd2 cbbd 9d00 68bd 1ec8 52bd
00000320: c0ef b3be 2a9f 8ebc 8c0a 63be 3614 01bd
00000330: f92c 2338 4ed8 bd3d 7076 2ebd 071d 79be
00000340: eb93 3b3c 2e8e ebba 3b82 45bc 19f8 dcbb
00000350: 5e5b 48bc 65ce 923e ba20 f0bb e627 523e
00000360: 80c8 61bc 7913 47bc 19b2 68be 3699 033e
00000370: a5ff 5abd da34 32bd 0449 df3d 2ec5 d9bc
00000380: 5b5d a6bd f57b 0b3d f481 e2bc 540e 89bd
00000390: 4240 5ebc 80b1 4c3d 5262 5dbc 2b17 6ebc
000003a0: 4c5a bd3d 38db 883e 84f2 a7be 9125 1dbe
000003b0: 0d0c a63d 3545 803d 0918 0a3e 6837 49be
000003c0: 9e05 6d3e 7780 4d3e a9ba d83c 7c2b 9d3e
000003d0: 7f78 b7bc cdd1 843c 4fe7 b63c 8d21 53be
000003e0: 978c 3fbd 1885 d3bd 761a 153c aa43 47bc
000003f0: af97 05bb 127f e4bc 44d5 b8bd b2cf 98bc

layer3.weight f4 [256, 256]
-0.06522485 0.1223396 0.062106345 -0.12514168 0.047665864 0.060246676 -0.062051672 0.017792368
0.11300226 -0.11801008 -0.3136069 -0.01774596 -0.0023554382 -0.31603888 0.1160172 -0.08215212
-0.062343348 0.06138655 0.05343657 0.08468465 0.17970219 -0.10729413 0.0733772 -0.0850346
0.042010672 -0.0041893576 -0.105476655 0.08596692 0.13538301 0.0080572255 -0.06306485 0.1031429
0.039573096 -0.33207762 -0.101190396 0.0684808 -0.11770741 0.27359426 -0.12393932 0.016920613
-0.028217804 -0.011306272 -0.42106137 -0.06045219 -0.07482536 -0.03176723 -0.015319405 0.008026643
-0.036520634 -0.08984417 -0.037621927 -0.05061584 -0.080392644 -0.14968406 -0.108484946 -0.00027693177
-0.070248865 0.16538632 -0.32471174 -0.13683955 -0.053288896 -0.40583172 -0.04328973 0.40318215
-0.015960865 0.11176446 0.29491457 -0.101815015 -0.16737817 -0.025781699 -0.03398598 -0.09601568
-0.15567407 -0.04899005 -0.15751015 -0.056152023 0.021739254 -0.049165215 0.06040737 0.041889653
-0.46889338 0.10471577 0.07072369 -0.22313954 -0.06369421 -0.05998823 -0.59630764 -0.041751508
0.060621742 -0.32589108 -0.17422771 -0.29263017 -0.24221422 -0.42160735 -0.0536923 0.23589355
-0.16107462 -0.0396556 -0.017130706 -0.093985945 -0.06366707 -0.024054939 -0.041944683 -0.19396505
-0.050275672 -0.27051714 0.00065439945 -0.18869299 -0.28949586 0.21379575 0.056015436 -0.14785953
0.115599744 -0.20133646 -0.03985037 -0.27938196 -0.060632624 0.16111578 0.089133516 -0.05221163
-0.032130636 0.06614126 -0.24704814 -0.09670048 -0.018344881 0.11340959 0.19544356 0.0041568596
-0.04160626 -0.040438443 -0.0052613397 -0.004627808 0.0031487742 -0.10189537 -0.0482673 -0.048467603
-0.09472748 0.0645404 -0.022753723 0.031889383 -0.04673304 0.0493365 -0.040658277 0.022192381
-0.2946254 -0.090881646 -0.06766607 -0.19943158 0.008855342 0.13723585 0.02224603 0.039584316
-0.324161 -0.012137015 -0.10616195 -0.010349167 -0.2044458 -0.00071095413 0.028009158 -0.053744253
0.0006489174 -0.039327607 0.04711661 0.009447717 -0.04358428 -0.13058393 -0.08643327 -0.27374506
-0.06725311 0.048291974 0.03883395 0.02169053 -0.06049018 0.10717903 0.04909474 -0.019062085
-0.16453691 -0.008964675 -0.22004072 -0.105317384 -0.004618656 -0.004574318 -0.032393865 -0.055444572
0.013380413 -0.03670257 -0.0942755 -0.113771066 -0.035598848 -0.18447109 -0.03956851 -0.116573036
-0.16309623 -0.06043274 -0.07103872 -0.041012067 -0.08885128 -0.07951538 -0.07302926 0.04879662
-0.16480461 -0.26875314 0.05485748 -0.08808961 0.1055977 0.24250722 0.06442259 -0.19363613
-0.0536866 -0.0010854901 -0.08304591 -0.058073815 0.084109254 -0.12827623 -0.30020133 0.030229684
-0.044379875 -0.023653569 -0.0062362044 -0.24772553 -0.08443612 -0.004906877 -0.038195334 -0.04547012
-0.031584885 -0.040149234 -0.10226797 -0.022567593 -0.07320171 -0.058929473 0.07833581 -0.06573476
0.08246184 -0.09280465 -0.6982404 0.223098 0.009455721 0.11017438 0.07477932 -0.04222822
0.101067394 -0.28250378 0.030862207 -0.1885463 -0.069940805 -0.09114215 0.0005091912 -0.11965541
-0.026290506 -0.045210864 -0.024959732 -0.031705797 -0.12599748 -0.11380689 -0.23818783 -0.008998117
00000000: 9b94 85bd 2f8d fa3d 3963 7e3d 2425 00be
00000010: 483d 433d 38c5 763d e529 7ebd 4dc1 913c
00000020: bb6d e73d 45af f1bd 1591 a0be fa5f 91bc
00000030: b25d 1abb d9cf a1be 6d9a ed3d 5f3f a8bd
00000040: bd5b 7fbd 7770 7b3d 4ee0 5a3d 256f ad3d
00000050: da03 383e 06bd dbbd c946 963d 9f26 aebd
00000060: 6213 2c3d e146 89bb 2504 d8bd 6d0f b03d
00000070: d8a1 0a3e 7402 043c 2528 81bd 963c d33d
00000080: 6617 223d 1406 aabe e93c cfbd a93f 8c3d
00000090: 9510 f1bd 8c14 8c3e e6d3 fdbd 199d 8a3c
000000a0: 0629 e7bc f13d 39bc 5b95 d7be b79c 77bd
000000b0: 0a3e 99bd 5b1e 02bd 3efe 7abc 2e82 033c
000000c0: a996 15bd 3800 b8bd 7319 1abd 8e52 4fbd
000000d0: e6a4 a4bd c746 19be 5b2d debd 2731 91b9
000000e0: a3de 8fbd 085b 293e 9e40 a6be ab1f 0cbe
000000f0: 7545 5abd 2dc9 cfbe 9250 31bd e46d ce3e
00000100: 5cc0 82bc c4e4 e43d 0bff 963e 6484 d0bd
00000110: 2f65 2bbe 2434 d3bc e234 0bbd dea3 c4bd
00000120: 0669 1fbe caa9 48bd 574a 21be aaff 65bd
00000130: 8516 b23c 7761 49bd b86d 773d 7c94 2b3d
00000140: cb12 f0be 3975 d63d 95d7 903d b17e 64be
00000150: 1c72 82bd 38b6 75bd 9ea7 18bf a103 2bbd
00000160: 814e 783d 32db a6be c068 32be 9fd3 95be
00000170: 0107 78be ebdc d7be 75ec 5bbd 148e 713e
00000180: bff0 24be e96d 22bd b255 8cbc b47b c0bd
00000190: e163 82bd dd0e c5bc 30ce 2bbd c69e 46be
000001a0: dded 4dbd 3981 8abe 018c 2b3a bc38 41be
000001b0: cd38 94be 46ed 5a3e 7170 653d 7d68 17be
000001c0: 8fbf ec3d 252b 4ebe 243a 23bd 270b 8fbe
000001d0: ea59 78bd 89fb 243e a28b b63d dddb 55bd
000001e0: 6a9b 03bd 1275 873d 30fa 7cbe e70a c6bd
000001f0: 0148 96bc 4a43 e83d 5b22 483e 4436 883b
00000200: 536b 2abd c8a2 25bd 5167 acbb dea4 97bb
00000210: aa5b 4e3b 85ae d0bd efb3 45bd f785 46bd
00000220: 7b00 c2bd c22d 843d 0466 babc 719e 023d
00000230: 256b 3fbd 1215 4a3d 4b89 26bd cccc b53c
00000240: 24d9 96be 2820 babd 8294 8abd cb37 4cbe
00000250: ff15 113c 8e87 0c3e 4e3d b63c 2a23 223d
00000260: 6ef8 a5be 55da 46bc 706b d9bd 8d8f 29bc
00000270: 3d5a 51be 535f 3aba 7673 e53c ef22 5cbd
00000280: 1c1c 2a3a fc15 21bd 59fd 403d 99ca 1a3c
00000290: 6e85 32bd cbb7 05be ed03 b1bd 5028 8cbe
000002a0: 00bc 89bd cecd 453d 5910 1f3d 57b0 b13c
000002b0: 8dc4 77bd ae80 db3d 9117 493d 1728 9cbc
000002c0: 5d7c 28be 92e0 12bc 5b52 61be a4b0 d7bd
000002d0: 1858 97bb 29e4 95bb 6eaf 04bd d919 63bd
000002e0: 8539 5b3c 6f55 16bd 8313 c1bd ce00 e9bd
000002f0: 19d0 11bd fde5 3cbe 9712 22bd d8bd eebd
00000300: b302 27be 5288 77bd c07c 91bd 45fc 27bd
00000310: a9f7 b5bd f6d8 a2bd 5d90 95bd f7de 473d
00000320: 8ac2 28be 039a 89be 3db2 603d 5368 b4bd
00000330: 9b43 d83d d053 783e feef 833d 8d48 46be
00000340: 7be6 5bbd 0147 8eba f913 aabd cfde 6dbd
00000350: 7941 ac3d d85a 03be fdb3 99be 3ea4 f73c
00000360: acc7 35bd 21c5 c1bc 1359 ccbb c3ab 7dbe
00000370: d8ec acbd dec9 a0bb b672 1cbd e03e 3abd
00000380: 275f 01bd 8673 24bd df71 d1bd acdf b8bc
00000390: c7ea 95bd 0860 71bd 866e a03d f29f 86bd
000003a0: c1e1 a83d 5d10 bebd e2bf 32bf cd73 643e
000003b0: 2bec 1a3c 1ba3 e13d e625 993d 7ff7 2cbd
000003c0: 6cfc ce3d 56a4 90be bdd2 fc3c 4812 41be
000003d0: 203d 8fbd bca8 babd 3e7b 053a e50d f5bd
000003e0: 305f d7bc 072f 39bd 5a78 ccbc f0dd 01bd
000003f0: 7c05 01be 9613 e9bd 83e7 73be d76c 13bc

layer3.bias f4 [256]
0.1176363 0.34315103 -0.44812903 0.12094363 -0.31367412 -0.4203125 0.13524495 -0.290539
0.243699 -0.4060937 -0.19762853 -0.2940156 -0.43892053 0.20547585 -0.4083925 -0.1945136
-0.12798713 -0.3507026 -0.17557952 -0.010721464 0.37599012 -0.22826947 -0.11484864 -0.15833783
-0.4539865 -0.4108968 -0.2234935 -0.27545327 -0.23933925 -0.31140068 0.0338404 -0.1900829
-0.51120543 -0.094708435 -0.26314294 -0.25707492 -0.45329198 -0.25464562 -0.49309066 -0.09005229
-0.2746668 0.15914075 -0.42311028 -0.55753577 0.31611356 -0.09085282 -0.37652308 -0.32702646
-0.25058672 -0.082366385 -0.25009975 -0.45389783 0.25387514 -0.29655766 -0.19481127 -0.005299764
-0.14921534 0.03459919 -0.15231723 -0.023528837 0.1531757 -0.41348866 -0.19423622 -0.3823513
-0.187645 -0.094466634 -0.16655397 -0.35551858 -0.009316495 0.08431443 -0.41191056 0.20714445
-0.012272335 -0.49149796 -0.091845594 -0.38434032 -0.28210586 -0.39022833 -0.40525874 -0.2450262
-0.5440164 -0.063387685 -0.19176945 -0.09251149 -0.3323284 0.13706847 -0.37175277 -0.20530792
-0.37279323 0.2082062 0.28650096 0.20028897 0.52212733 -0.36713997 -0.34619546 -0.3104752
-0.39520937 -0.20427997 -0.48763174 -0.35684606 0.097245134 0.2927056 0.16643853 -0.44724676
0.08348874 -0.13432793 0.0017811775 0.17715228 -0.42759305 -0.23393145 -0.29734242 0.51265234
-0.39702615 -0.4485944 -0.13716382 -0.33065733 -0.20867182 -0.19221239 0.09018511 0.22220497
0.20717736 -0.17333992 0.21954356 -0.70099825 0.20805942 0.17570004 -0.25202772 -0.30180395
5.3549804e-05 0.025119342 0.10592468 -0.46386123 0.13584949 -0.25007334 -0.120592445 0.01988949
-0.36634943 0.75818056 -0.30273664 -0.34977576 -0.27295431 -0.3156418 0.22725609 0.20055164
-0.20142725 -0.1494591 -0.22746253 0.2703238 -0.22449194 0.03354499 -0.3620238 -0.015006162
-0.21622637 -0.41083473 -0.21434222 -0.12954389 -0.2750445 0.2855876 -0.29205117 -0.1366187
0.21592776 -0.16087545 -0.3633406 0.07758528 0.06798699 -0.3178777 0.18025947 -0.4006496
-0.353635 -0.3630106 -0.41038987 -0.37084383 -0.31980395 -0.10276232 -0.31768754 0.045565147
-0.3384817 -0.41965666 -0.31986687 -0.14977501 -0.281314 -0.25066435 -0.275192 0.24764158
-0.17287594 -0.16464527 -0.33500385 -0.4529036 -0.34119985 -0.276027 -0.16239786 -0.036756106
-0.14039877 -0.3462847 -0.3094768 0.0027418935 -0.17322062 0.0793865 -0.13761908 -0.07597369
-0.24270424 -0.010498451 -0.50889343 0.36302888 0.010536229 -0.1052528 -0.24673873 -0.34477744
0.21312681 -0.06634 0.036571607 -0.21897967 -0.4939902 -0.3132096 -0.3581571 0.010413757
-0.24936505 -0.035588436 -0.041785453 -0.47464126 -0.24961537 -0.5358749 -0.3908858 -0.18867241
-0.21333294 0.10950156 -0.035467457 -0.26142606 0.3799306 0.24677728 0.05555428 -0.31092066
-0.02833607 -0.39543563 -0.31295976 -0.012601459 0.45071286 0.5339276 -0.07622711 -0.19238392
-0.4998161 -0.23622367 -0.23274396 0.1685825 -0.19249983 0.028955014 0.4781724 -0.29587242
0.12254921 -0.24414183 -0.39682573 0.17789978 0.049355827 -0.32929292 0.3328937 -0.36341718
00000000: 4deb f03d 7eb1 af3e 2b71 e5be 4bb1 f73d
00000010: e599 a0be 3333 d7be a77d 0a3e 87c1 94be
00000020: 3b8c 793e 83eb cfbe 225f 4abe 3689 96be
00000030: 31ba e0be 4368 523e d218 d1be 932e 47be
00000040: 0f0f 03be 4b8f b3be 1ecb 33be 14a9 2fbc
00000050: c781 c03e 79bf 69be c435 ebbd 5023 22be
00000060: eb70 e8be 1161 d2be 7bdb 64be 3608 8dbe
00000070: 5915 75be e96f 9fbe 3b9c 0a3d 17a5 42be
00000080: 5cde 02bf 7ff6 c1bd acba 86be 539f 83be
00000090: e315 e8be e960 82be 6176 fcbe 566d b8bd
000000a0: 20a1 8cbe cbf5 223e e9a1 d8be aaba 0ebf
000000b0: a3d9 a13e 0b11 babd a2c7 c0be 0370 a7be
000000c0: e74c 80be b5af a8bd 130d 80be 4c65 e8be
000000d0: ecfb 813e 68d6 97be 9b7c 47be a5a9 adbb
000000e0: e8cb 18be e1b7 0d3d 0cf9 1bbe 8cbf c0bc
000000f0: 17da 1c3e c9b4 d3be dce5 46be 8dc3 c3be
00000100: 0326 40be b977 c1bd 208d 2abe 8806 b6be
00000110: 36a4 18bc 0bad ac3d f1e5 d2be ad1d 543e
00000120: e711 49bc 9fa5 fbbe 8b19 bcbd 41c8 c4be
00000130: 2e70 90be 02cc c7be 137e cfbe 26e8 7abe
00000140: a944 0bbf 67d1 81bd 365f 44be aa76 bdbd
00000150: f326 aabe ad5b 0c3e 6156 bebe 3d3c 52be
00000160: c1de bebe 0234 553e 41b0 923e 8d18 4d3e
00000170: 23aa 053f c5f9 bbbe 8840 b1be 9bf6 9ebe
00000180: e258 cabe c52e 51be deaa f9be 87b4 b6be
00000190: 7528 c73d 82dd 953e dd6e 2a3e 87fd e4be
000001a0: 25fc aa3d 438d 09be 6676 e93a 6867 353e
000001b0: 7aed dabe ba8b 6fbe 443d 98be 2f3d 033f
000001c0: 0347 cbbe 2aae e5be ac74 0cbe eb4b a9be
000001d0: 11ae 55be 53d3 44be f9b2 b83d b389 633e
000001e0: 4d26 543e 0580 31be 07d0 603e 9f74 33bf
000001f0: 870d 553e b6ea 333e c709 81be 0c86 9abe
00000200: aa9a 6038 14c7 cd3c 0aef d83d 387f edbe
00000210: 211c 0b3e 9d09 80be 2cf9 f6bd 49ef a23c
00000220: 2792 bbbe 1f18 423f 4c00 9bbe cf15 b3be
00000230: abc0 8bbe cd9b a1be d2b5 683e 695d 4d3e
00000240: f242 4ebe ce0b 19be f0eb 68be e267 8a3e
00000250: 37e1 65be 7966 093d 2f5b b9be 68dc 75bc
00000260: 726a 5dbe ee58 d2be 877c 5bbe 27a7 04be
00000270: a2d2 8cbe 8a38 923e bb87 95be c6e5 0bbe
00000280: 2b1c 5d3e 89bc 24be c707 babe 08e5 9e3d
00000290: c33c 8b3d dec0 a2be f095 383e f221 cdbe
000002a0: a60f b5be 86dc b9be 9f1e d2be 3edf bdbe
000002b0: 58bd a3be 0d75 d2bd f1a7 a2be 85a2 3a3d
000002c0: 794d adbe 3ddd d6be 97c5 a3be 9f5e 19be
000002d0: 6308 90be 1457 80be f7e5 8cbe c195 7d3e
000002e0: 6406 31be c598 28be a085 abbe fbe2 e7be
000002f0: bfb1 aebe 6953 8dbe a04b 26be 928d 16bd
00000300: b2c4 0fbe 3a4c b1be be73 9ebe 57b1 333b
00000310: bf60 31be 6495 a23d 04ec 0cbe 1898 9bbd
00000320: 7687 78be b201 2cbc d746 02bf ecde b93e
00000330: 26a0 2c3c c88e d7bd 14a9 7cbe ab86 b0be
00000340: ea3d 5a3e 44dd 87bd 1ccc 153d 353c 60be
00000350: 49ec fcbe 025d a0be 5e60 b7be 769e 2a3c
00000360: 8d59 7fbe 2ec5 11bd 3927 2bbd 2e04 f3be
00000370: 2c9b 7fbe 192f 09bf 2f22 c8be 5733 41be
00000380: f373 5abe 5b42 e03d 5346 11bd a3d9 85be
00000390: 4386 c23e 2fb3 7c3e e28c 633d fe30 9fbe
000003a0: 0c21 e8bc 8a76 cabe 433c a0be 5a76 4ebc
000003b0: d6c3 e63e 7baf 083f f61c 9cbd 4a00 45be
000003c0: e5e7 ffbe 9ee4 71be 6f54 6ebe e4a0 2c3e
000003d0: ad1e 45be 1133 ed3c 03d3 f43e 977c 97be
000003e0: 15fb fa3d 5100 7abe be2c cbbe 5c2b 363e
000003f0: 5629 4a3d 1599 a8be 0b71 aa3e d111 babe

layer4.weight f4 [256, 256]
0.036128264 -0.1038073 -0.026519867 -0.050089303 0.06917607 0.013309151 -0.17372589 -0.090130135
-0.028584238 0.010245224 0.029905817 0.008631457 0.008761811 0.011094854 0.03398293 -0.0070986613
-0.030983474 0.03142099 0.02045014 0.011115686 -0.049463414 -0.027409201 0.09983846 -0.0820839
-0.15262127 0.0046763043 0.11800587 0.011337774 -0.019283438 -0.01955364 -0.09270736 0.017063415
-0.023366246 -0.013951073 0.01524418 -9.009377e-05 0.065686904 0.17469262 -0.022538904 0.030532504
0.002842721 0.0014524356 -0.0024320532 -0.001124274 -0.14291921 -0.22140755 -0.009030274 -0.05661077
-0.0013812659 -0.10863633 0.011350983 0.06262577 -0.0976284 -0.09179721 -0.0572991 0.012883127
-0.10263861 0.09105558 -0.11056813 -0.026178058 -0.0070745507 0.038251173 -0.023364974 -0.0064739585
-0.038181916 -0.03483755 0.002507242 0.034674384 -0.16249155 -0.24443902 -0.0113141695 0.022389306
-0.19225171 0.007151158 -0.039129253 -0.023875382 0.009241396 -0.16066962 -0.012900155 -0.03542718
-0.037254404 -0.03944692 -0.072689995 0.018994825 -0.015142173 -0.14414103 -0.032285005 0.014386952
0.026825111 0.0032209412 -0.008502863 -0.08613899 -0.04859927 0.009513641 0.017680036 -0.0101257935
0.014513774 0.07170955 0.026388058 0.008698842 -0.025379287 -0.15131423 -0.059628922 -0.009340532
-0.031328958 -0.047655154 -0.34727886 -0.031745132 0.021519506 -0.14496191 -0.045958873 -0.12044975
0.0030593518 0.0193405 -0.040852915 -0.08643628 -0.022733608 -0.012651894 -0.05301781 -0.0892689
0.03204902 -0.07184126 -0.09583088 -0.029574988 -0.2711913 -0.019060869 -0.03926568 0.001585958
-0.08787025 -0.0047682384 -0.3663129 0.0058997315 -0.039502002 -0.0042890445 -0.12147174 -0.1825284
-0.030430732 -0.07806015 0.021245664 -0.20769314 -0.024499932 -0.011851965 -0.08920202 -0.05345377
-0.0828527 -0.04985836 -0.0071140025 0.06738818 -0.0052549345 -0.095362 -0.05493095 -0.28454065
-0.013174035 -0.022987513 -0.022060283 -0.017738454 -0.039790373 -0.16213953 0.009593438 0.0037821517
-0.06403614 0.015513095 -0.33220866 -0.214042 -0.053723738 -0.1382571 -0.1622437 -0.0043994766
-0.021091025 -0.0035437213 -0.1963211 0.02463269 -0.010918591 0.0069588656 0.13031274 -0.078896955
-0.017686468 -0.034411624 0.015842093 -0.040899716 0.021865621 0.30011415 0.03814068 -0.107433215
0.029230488 -0.064818874 -0.038404744 -0.011032245 -0.055107936 0.022438768 0.032012735 0.05819818
-0.000717686 0.012798863 -0.010554151 0.10578308 0.0226907 -0.14738402 0.0080321 0.01578212
-3.787836e-05 -0.01831126 -0.004783216 -0.075126156 -0.17572756 -0.016581306 0.0030945425 0.026071899
-0.27665624 0.00025373098 -0.012381684 0.02651462 -0.021645907 -0.023759319 0.034711976 -0.12193608
-0.034563933 -0.013087741 -0.011351085 -0.03521151 -0.08703473 0.047964036 0.031332288 -0.061895348
0.032686185 0.1374065 0.109575264 0.031406 -0.21889877 -0.03994051 -0.06276669 0.015253945
0.09074824 0.0312882 -0.0810498 0.00067103707 -0.14508982 -0.036623694 -0.12189264 0.017166954
0.00047538136 0.09607545 -0.00086195004 -0.08964394 -0.0119615095 0.006462735 -0.006481619 0.03534139
-0.0115483785 -0.086631365 0.03259252 -0.20082958 -0.044789437 -0.012698242 -0.13557713 0.024742547
00000000: 3bfb 133d ec98 d4bd 3140 d9bc 712a 4dbd
00000010: 2fac 8d3d a00e 5a3c 33e5 31be 2696 b8bd
00000020: 7e29 eabc 96db 273c 0bfd f43c f46a 0d3c
00000030: b38d 0f3c 31c7 353c af31 0b3d e39b e8bb
00000040: 0ed1 fdbc 4cb3 003d 0d87 a73c 911e 363c
00000050: 269a 4abd 4389 e0bc 1b78 cc3d 9b1b a8bd
00000060: c048 1cbe af3b 993b 10ad f13d 12c2 393c
00000070: 4df8 9dbc f52e a0bc 5bdd bdbd 93c8 8b3c
00000080: 926a bfbc 0b93 64bc bac2 793c b9f0 bcb8
00000090: db86 863d 9fe2 323e 82a3 b8bc 4d1f fa3c
000000a0: f24c 3a3b a75f be3a 1563 1fbb 605c 93ba
000000b0: 6a59 12be a9b8 62be b7f3 13bc b2e0 67bd
000000c0: 980b b5ba b97c debd 79f9 393c f141 803d
000000d0: 66f1 c7bd 2d00 bcbd 76b2 6abd c013 533c
000000e0: 3134 d2bd 597b ba3d 8b71 e2bd 5e73 d6bc
000000f0: a2d1 e7bb 43ad 1c3d e767 bfbc 8023 d4bb
00000100: a464 1cbd d2b1 0ebd 8a50 243b ba06 0e3d
00000110: 2f64 26be 394e 7abe 115f 39bc c769 b73c
00000120: a2dd 44be 4354 ea3b ff45 20bd 4e96 c3bc
00000130: 3969 173c 9486 24be 2c5b 53bc 171c 11bd
00000140: 1398 18bd 1893 21bd 7ede 94bd 099b 9b3c
00000150: e016 78bc b599 13be 483d 04bd 40b7 6b3c
00000160: 56c0 db3c 6d16 533b 984f 0bbc a469 b0bd
00000170: 0710 47bd 1adf 1b3c b9d5 903c a8e6 25bc
00000180: 2ecb 6d3c 75dc 923d c52b d83c 9685 0e3c
00000190: 39e8 cfbc 1ef2 1abe 753d 74bd 0809 19bc
000001a0: cb52 00bd 0d32 43bd 89ce b1be 2f07 02bd
000001b0: ad49 b03c e570 14be 5f3f 3cbd 5cae f6bd
000001c0: 687f 483b f86f 9e3c 6355 27bd 8105 b1bd
000001d0: d53b babc e449 4fbc 3429 59bd 9dd2 b6bd
000001e0: d545 033d 8321 93bd fb42 c4bd 3f47 f2bc
000001f0: 96d9 8abe 8a25 9cbc 0dd5 20bd ebdf cf3a
00000200: 51f5 b3bd e23e 9cbb 5d8d bbbe 8952 c13b
00000210: dacc 21bd 1d8b 8cbb 2dc6 f8bd bae8 3abe
00000220: df49 f9bc 00de 9fbd 630b ae3c 83ad 54be
00000230: 15b4 c8bc bf2e 42bc 8caf b6bd 57f2 5abd
00000240: adae a9bd 4838 4cbd 941c e9bb d002 8a3d
00000250: 9631 acbb 274d c3bd 47ff 60bd 50af 91be
00000260: e8d7 57bc 4f50 bcbc c4b7 b4bc 3c50 91bc
00000270: 3bfb 22bd e807 26be cc2d 1d3c fadd 773b
00000280: 6125 83bd a32a 7e3c 4117 aabe d32d 5bbe
00000290: 6c0d 5cbd 4593 0dbe 3623 26be 7c29 90bb
000002a0: 16c7 acbc c73d 68bb 6608 49be 7fca c93c
000002b0: e4e3 32bc 3207 e43b b470 053e ba94 a1bd
000002c0: 36e3 90bc 34f3 0cbd 47c7 813c 7686 27bd
000002d0: 881f b33c 90a8 993e 6739 1c3d f205 dcbd
000002e0: c774 ef3c c2bf 84bd 4b4e 1dbd 97c0 34bc
000002f0: dcb8 61bd 82d1 b73c c91f 033d 3761 6e3d
00000300: 1823 3cba 53b2 513c 51eb 2cbc cda4 d83d
00000310: d9e1 b93c d6eb 16be 1299 033c 8149 813c
00000320: 94df 1eb8 7f01 96bc 86bc 9cbb bedb 99bd
00000330: edf1 33be 85d5 87bc cfcd 4a3b bc94 d53c
00000340: e3a5 8dbe 3207 8539 8cdc 4abc 3035 d93c
00000350: c252 b1bc e7a2 c2bc 252e 0e3d a0b9 f9bd
00000360: e992 0dbd f76d 56bc e7f9 39bc f239 10bd
00000370: 443f b2bd f075 443d 4956 003d fa85 7dbd
00000380: f3e1 053d 4ab4 0c3e ff68 e03d 94a3 003d
00000390: 0027 60be a998 23bd d38b 80bd afeb 793c
000003a0: 37da b93d 0e28 003d 70fd a5bd 89e8 2f3a
000003b0: 6d92 14be ba02 16bd d9a2 f9bd b6a1 8c3c
000003c0: 9b3c f939 35c3 c43d 7df4 61ba 3e97 b7bd
000003d0: 35fa 43bc 5ac5 d33b c363 d4bb 22c2 103d
000003e0: 6935 3dbc c96b b1bd bc7f 053d 45a6 4dbe
000003f0: 2175 37bd 4a0c 50bc bbd4 0abe e2b0 ca3c

layer4.bias f4 [256]
0.040369015 -0.18402192 0.57368314 -0.29352105 0.73289746 -0.25901616 -0.028899837 0.14866608
-0.15283798 -0.13801447 0.2537186 0.45118925 0.59723073 0.7743943 -0.15830916 -0.4239411
-0.401169 0.09160015 0.5666904 -0.04392568 -0.47056577 -0.18378907 0.15321474 -0.12808369
0.054276038 0.5628816 -0.14527774 -0.013639702 0.5270195 -0.22158338 0.033559367 -0.03466085
0.15448283 0.6304179 -0.48722917 0.6887626 0.13563266 -0.13284416 0.34973022 0.49276847
-0.16905786 0.5292637 -0.13925813 0.45896912 -0.17002219 -0.098227106 -0.32862344 -0.08285028
-0.31415445 -0.039112177 -0.265072 0.34992644 -0.22310749 -0.17620775 -0.23583032 -0.39679474
-0.15464501 -0.006993242 0.83429193 -0.12106955 -0.24596165 -0.16611904 -0.27156046 0.28784585
-0.022954807 -0.43024343 -0.15192439 0.5154324 -0.5326147 0.66043496 -0.30472118 -0.4182092
-0.27819046 -0.53825605 -0.16103393 -0.032843977 -0.027192716 0.4443196 0.4106388 -0.09448452
-0.2935306 -0.2877104 -0.12251019 0.08667355 -0.47957876 0.22787678 -0.047190804 -0.29109
-0.2156542 -0.05814932 -0.020470496 0.42000687 0.30052584 -0.056041922 -0.06211167 -0.092634074
0.27953142 -0.036894117 -0.099995084 -0.1265998 -0.19766009 0.5421776 -0.17915292 0.20927966
-0.11147859 -0.21878652 -0.17738132 0.31003413 0.14753298 0.2631294 -0.04518663 0.5305176
-0.03624721 -0.07055178 -0.40629998 0.06887237 -0.20866042 -0.09878372 -0.37778226 0.22342013
-0.060042642 0.24092865 -0.17449301 -0.1600209 -0.15376957 -0.21029249 -0.28815797 -0.17955075
-0.07855519 0.015156538 -0.218818 -0.048604984 -0.27576905 -0.13973404 -0.003225932 0.7583376
-0.10679845 -0.03362321 -0.18655764 -0.09370359 0.5483928 -0.33675662 -0.13590406 -0.26129153
-0.09783364 -0.26005948 -0.16352375 -0.2616898 0.6392523 -0.091136925 0.14168881 0.5088887
-0.13258898 -0.08206487 -0.09054421 -0.18912844 -0.035499252 -0.36124545 -0.11353504 -0.33828592
0.71915835 0.11506578 0.0008017505 -0.11893072 0.08145385 -0.1883487 -0.21122235 0.10840991
-0.42637056 -0.18082067 0.6786913 0.046874467 -0.26027104 -0.24989973 -0.28650102 0.48977876
-0.06973163 -0.29050133 0.7765258 0.29920083 -0.4480892 -0.07910258 -0.16469936 -0.12590654
-0.37231523 -0.34401727 -0.20253713 -0.13945599 -0.09235593 0.9287581 -0.011302625 -0.09516783
-0.16124398 -0.33967718 0.2259097 -0.24829529 -0.17977613 0.16680866 -0.06678455 0.20740588
-0.14092824 0.38618186 0.30660325 -0.09730332 -0.13789815 0.6855252 -0.63886803 -0.31743714
-0.33452478 -0.055808604 -0.13700189 0.2657994 -0.101573184 -0.030442063 0.68549603 0.4802579
-0.43923476 0.060868625 0.049538136 0.7479371 -0.3331368 -0.3307053 -0.5690819 -0.0713576
-0.31935596 0.40088433 0.04567908 -0.1877888 0.2797659 0.36087304 -0.39081436 -0.24801126
-0.056935083 -0.040011477 -0.5316267 0.08026986 -0.12039919 -0.22545376 -0.17182113 -0.105763376
-0.00978428 -0.026032703 0.047619335 -0.13007894 -0.1549472 -0.13587077 -0.35927284 -0.15561166
0.12080134 -0.028655294 -0.14205769 0.7810026 -0.23880276 -0.23076278 -0.11760018 0.35208535
00000000: fb59 253d 3e70 3cbe e6dc 123f 6448 96be
00000010: 2b9f 3b3f c49d 84be 5abf ecbc ec3b 183e
00000020: 8f81 1cbe aa53 0dbe 68e7 813e 4702 e73e
00000030: 1de4 183f b43e 463f cc1b 22be cf0e d9be
00000040: 0666 cdbe dc98 bb3d 9f12 113f 6aeb 33bd
00000050: ffed f0be 3433 3cbe 53e4 1c3e 5f28 03be
00000060: 8d50 5e3d 0219 103f b0c3 14be 0f79 5fbc
00000070: c0ea 063f c1e6 62be 8c75 093d 89f8 0dbd
00000080: bf30 1e3e 1163 213f 1a76 f9be bf52 303f
00000090: 4ae3 0a3e 4d08 08be d70f b33e 264c fc3e
000000a0: 811d 2dbe d37d 073f af99 0ebe 00fe ea3e
000000b0: 4c1a 2ebe 4b2b c9bd 5541 a8be 68ad a9bd
000000c0: dad8 a0be 1734 20bd 84b7 87be 8f29 b33e
000000d0: 4a76 64be ce6f 34be 817d 71be ae28 cbbe
000000e0: 435b 1ebe 9127 e5bb 2894 553f 50f3 f7bd
000000f0: 5fdd 7bbe 1c1b 2abe f909 8bbe 8860 933e
00000100: b80b bcbc de48 dcbe 1192 1bbe 61f3 033f
00000110: 7059 08bf 4412 293f 6a04 9cbe 841f d6be
00000120: fb6e 8ebe 26cb 09bf 14e6 24be 6887 06bd
00000130: 42c3 debc dc7d e33e 403f d23e 1a81 c1bd
00000140: a549 96be c74e 93be 9fe6 fabd e781 b13d
00000150: 598b f5be 8858 693e 254b 41bd c009 95be
00000160: 74d4 5cbe fb2d 6ebd beb1 a7bc 240b d73e
00000170: 86de 993e 378c 65bd ce68 7ebd efb6 bdbd
00000180: be1e 8f3e 491e 17bd 39ca ccbd 61a3 01be
00000190: 6867 4abe 27cc 0a3f dd73 37be 684d 563e
000001a0: e34e e4bd 9309 60be 73a3 35be cbbc 9e3e
000001b0: e312 173e e6b8 863e 9e15 39bd 00d0 073f
000001c0: f477 14bd 747d 90bd 8d06 d0be f50c 8d3d
000001d0: 14ab 55be 1e4f cabd ad6c c1be 3fc8 643e
000001e0: 46ef 75bd 00b6 763e 4cae 32be 85dc 23be
000001f0: c575 1dbe ea56 57be 7189 93be 27dc 37be
00000200: 8be1 a0bd 2153 783c d311 60be 0516 47bd
00000210: 9a31 8dbe 7116 0fbe 286a 53bb 6a22 423f
00000220: 25b9 dabd 7eb8 09bd f708 3fbe abe7 bfbd
00000230: 7863 0c3f 5d6b acbe 6f2a 0bbe 01c8 85be
00000240: 015d c8bd 8426 85be c572 27be 35fc 85be
00000250: 0aa6 233f ffa5 babd df16 113e 8846 023f
00000260: 68c5 07be a011 a8bd 3e6f b9bd e3aa 41be
00000270: aa67 11bd 2af5 b8be 0f85 e8bd d033 adbe
00000280: c31a 383f 9ca7 eb3d 912c 523a f391 f3bd
00000290: 47d1 a63d 7bde 40be ac4a 58be 0406 de3d
000002a0: 3e4d dabe 0e29 39be b7be 2d3f 71ff 3f3d
000002b0: 3f42 85be b7e5 7fbe 43b0 92be 48c4 fa3e
000002c0: 75cf 8ebd 97bc 94be 65ca 463f da30 993e
000002d0: f36b e5be 8900 a2bd f3a6 28be a5ed 00be
000002e0: 1aa0 bebe 0823 b0be e565 4fbe 8dcd 0ebe
000002f0: 1b25 bdbd 17c3 6d3f a52e 39bc 5ae7 c2bd
00000300: 241d 25be 2bea adbe df54 673e 1f41 7ebe
00000310: 3c17 38be e4cf 2a3e 57c6 88bd 3562 543e
00000320: 7e4f 10be a1b9 c53e 1afb 9c3e f746 c7bd
00000330: 2c35 0dbe 947e 2f3f db8c 23bf 1f87 a2be
00000340: d546 abbe 9097 64bd 394a 0cbe dc16 883e
00000350: 9a05 d0bd a261 f9bc ab7c 2f3f 5de4 f53e
00000360: 61e3 e0be 6151 793d 80e8 4a3d ce78 3f3f
00000370: e890 aabe 3552 a9be 5aaf 11bf ef23 92bd
00000380: a082 a3be b640 cd3e fd19 3b3d b54b 40be
00000390: 7a3d 8f3e 5ac4 b83e d218 c8be aaf6 7dbe
000003a0: c334 69bd 13e3 23bd b018 08bf 8664 a43d
000003b0: da93 f6bd 5add 66be e1f1 2fbe 789a d8bd
000003c0: 3f4e 20bc 8942 d5bc 7e0c 433d 6a33 05be
000003d0: 7baa 1ebe b521 0bbe 9cf2 b7be aa58 1fbe
000003e0: b166 f73d 82be eabc 9277 11be c9ef 473f
000003f0: b688 74be 144d 6cbe 5dd8 f0bd 8844 b43e
